…
I0822 19:51:41.484791 14094 net.cpp:313] The NetState phase (0) differed from the phase (1) specified by a rule in layer data
I0822 19:51:41.484927 14094 net.cpp:49] Initializing net from parameters: 
name: "Bigram_Net_VGG"
state {
  phase: TRAIN
}
layer {
  name: "data"
  type: "Data"
  top: "data"
  top: "label"
  include {
    phase: TRAIN
  }
  transform_param {
  }
  data_param {
    source: "examples/jr-station/img_part_train_lmdb"
    batch_size: 500
    backend: LMDB
  }
  input_param {
    shape {
      dim: 1
      dim: 1
      dim: 32
      dim: 100
    }
  }
}
layer {
  name: "conv1"
  type: "Convolution"
  bottom: "data"
  top: "conv1"
  param {
    lr_mult: 1
    decay_mult: 1
  }
  param {
    lr_mult: 2
    decay_mult: 0
  }
  convolution_param {
    num_output: 64
    pad: 2
    kernel_size: 5
    stride: 1
    weight_filler {
      type: "gaussian"
      std: 0.01
    }
    bias_filler {
      type: "constant"
      value: 0
    }
  }
}
layer {
  name: "relu1"
  type: "ReLU"
  bottom: "conv1"
  top: "conv1"
}
layer {
  name: "pool1"
  type: "Pooling"
  bottom: "conv1"
  top: "pool1"
  pooling_param {
    pool: MAX
    kernel_size: 2
    stride: 2
    pad: 0
  }
}
layer {
  name: "conv2"
  type: "Convolution"
  bottom: "pool1"
  top: "conv2"
  param {
    lr_mult: 1
    decay_mult: 1
  }
  param {
    lr_mult: 2
    decay_mult: 0
  }
  convolution_param {
    num_output: 128
    pad: 2
    kernel_size: 5
    stride: 1
    weight_filler {
      type: "gaussian"
      std: 0.01
    }
    bias_filler {
      type: "constant"
      value: 0
    }
  }
}
layer {
  name: "relu2"
  type: "ReLU"
  bottom: "conv2"
  top: "conv2"
}
layer {
  name: "pool2"
  type: "Pooling"
  bottom: "conv2"
  top: "pool2"
  pooling_param {
    pool: MAX
    kernel_size: 2
    stride: 2
    pad: 0
  }
}
layer {
  name: "conv3"
  type: "Convolution"
  bottom: "pool2"
  top: "conv3"
  param {
    lr_mult: 1
    decay_mult: 1
  }
  param {
    lr_mult: 2
    decay_mult: 0
  }
  convolution_param {
    num_output: 256
    pad: 1
    kernel_size: 3
    stride: 1
    weight_filler {
      type: "gaussian"
      std: 0.01
    }
    bias_filler {
      type: "constant"
      value: 0
    }
  }
}
layer {
  name: "relu3"
  type: "ReLU"
  bottom: "conv3"
  top: "conv3"
}
layer {
  name: "conv3_5"
  type: "Convolution"
  bottom: "conv3"
  top: "conv3_5"
  param {
    lr_mult: 1
    decay_mult: 1
  }
  param {
    lr_mult: 2
    decay_mult: 0
  }
  convolution_param {
    num_output: 512
    pad: 1
    kernel_size: 3
    stride: 1
    weight_filler {
      type: "gaussian"
      std: 0.01
    }
    bias_filler {
      type: "constant"
      value: 0
    }
  }
}
layer {
  name: "relu3_5"
  type: "ReLU"
  bottom: "conv3_5"
  top: "conv3_5"
}
layer {
  name: "pool3"
  type: "Pooling"
  bottom: "conv3_5"
  top: "pool3"
  pooling_param {
    pool: MAX
    kernel_size: 2
    stride: 2
    pad: 0
  }
}
layer {
  name: "conv4"
  type: "Convolution"
  bottom: "pool3"
  top: "conv4"
  param {
    lr_mult: 1
    decay_mult: 1
  }
  param {
    lr_mult: 2
    decay_mult: 0
  }
  convolution_param {
    num_output: 512
    pad: 1
    kernel_size: 3
    stride: 1
    weight_filler {
      type: "gaussian"
      std: 0.01
    }
    bias_filler {
      type: "constant"
      value: 0
    }
  }
}
layer {
  name: "relu4"
  type: "ReLU"
  bottom: "conv4"
  top: "conv4"
}
layer {
  name: "fc1"
  type: "Convolution"
  bottom: "conv4"
  top: "fc1"
  param {
    lr_mult: 1
    decay_mult: 1
  }
  param {
    lr_mult: 2
    decay_mult: 0
  }
  convolution_param {
    num_output: 4096
    pad: 0
    stride: 1
    weight_filler {
      type: "gaussian"
      std: 0.01
    }
    bias_filler {
      type: "constant"
      value: 0
    }
    kernel_h: 4
    kernel_w: 13
  }
}
layer {
  name: "relu5"
  type: "ReLU"
  bottom: "fc1"
  top: "fc1"
}
layer {
  name: "fc2"
  type: "Convolution"
  bottom: "fc1"
  top: "fc2"
  param {
    lr_mult: 1
    decay_mult: 1
  }
  param {
    lr_mult: 2
    decay_mult: 0
  }
  convolution_param {
    num_output: 4096
    pad: 0
    kernel_size: 1
    stride: 1
    weight_filler {
      type: "gaussian"
      std: 0.01
    }
    bias_filler {
      type: "constant"
      value: 0
    }
  }
}
layer {
  name: "relu6"
  type: "ReLU"
  bottom: "fc2"
  top: "fc2"
}
layer {
  name: "fc_class"
  type: "Convolution"
  bottom: "fc2"
  top: "fc_class"
  param {
    lr_mult: 1
    decay_mult: 1
  }
  param {
    lr_mult: 2
    decay_mult: 0
  }
  convolution_param {
    num_output: 88172
    pad: 0
    kernel_size: 1
    stride: 1
    weight_filler {
      type: "gaussian"
      std: 0.01
    }
    bias_filler {
      type: "constant"
      value: 0
    }
  }
}
layer {
  name: "prob"
  type: "Softmax"
  bottom: "fc_class"
  top: "prob"
}
layer {
  name: "loss"
  type: "SoftmaxWithLoss"
  bottom: "fc_class"
  bottom: "label"
  top: "loss"
}
I0822 19:51:41.485010 14094 layer_factory.hpp:77] Creating layer data
I0822 19:51:41.485515 14094 net.cpp:91] Creating Layer data
I0822 19:51:41.485523 14094 net.cpp:399] data -> data
I0822 19:51:41.485540 14094 net.cpp:399] data -> label
I0822 19:51:41.486053 14100 db_lmdb.cpp:35] Opened lmdb examples/jr-station/img_part_train_lmdb
I0822 19:51:41.492794 14094 data_layer.cpp:41] output data size: 500,1,32,100
I0822 19:51:41.500532 14094 net.cpp:141] Setting up data
I0822 19:51:41.500555 14094 net.cpp:148] Top shape: 500 1 32 100 (1600000)
I0822 19:51:41.500560 14094 net.cpp:148] Top shape: 500 (500)
I0822 19:51:41.500562 14094 net.cpp:156] Memory required for data: 6402000
I0822 19:51:41.500568 14094 layer_factory.hpp:77] Creating layer conv1
I0822 19:51:41.500593 14094 net.cpp:91] Creating Layer conv1
I0822 19:51:41.500599 14094 net.cpp:425] conv1 <- data
I0822 19:51:41.500609 14094 net.cpp:399] conv1 -> conv1
I0822 19:51:41.621623 14094 net.cpp:141] Setting up conv1
I0822 19:51:41.621644 14094 net.cpp:148] Top shape: 500 64 32 100 (102400000)
I0822 19:51:41.621649 14094 net.cpp:156] Memory required for data: 416002000
I0822 19:51:41.621659 14094 layer_factory.hpp:77] Creating layer relu1
I0822 19:51:41.621666 14094 net.cpp:91] Creating Layer relu1
I0822 19:51:41.621670 14094 net.cpp:425] relu1 <- conv1
I0822 19:51:41.621675 14094 net.cpp:386] relu1 -> conv1 (in-place)
I0822 19:51:41.621865 14094 net.cpp:141] Setting up relu1
I0822 19:51:41.621875 14094 net.cpp:148] Top shape: 500 64 32 100 (102400000)
I0822 19:51:41.621876 14094 net.cpp:156] Memory required for data: 825602000
I0822 19:51:41.621879 14094 layer_factory.hpp:77] Creating layer pool1
I0822 19:51:41.621884 14094 net.cpp:91] Creating Layer pool1
I0822 19:51:41.621886 14094 net.cpp:425] pool1 <- conv1
I0822 19:51:41.621891 14094 net.cpp:399] pool1 -> pool1
I0822 19:51:41.621923 14094 net.cpp:141] Setting up pool1
I0822 19:51:41.621928 14094 net.cpp:148] Top shape: 500 64 16 50 (25600000)
I0822 19:51:41.621930 14094 net.cpp:156] Memory required for data: 928002000
I0822 19:51:41.621933 14094 layer_factory.hpp:77] Creating layer conv2
I0822 19:51:41.621942 14094 net.cpp:91] Creating Layer conv2
I0822 19:51:41.621944 14094 net.cpp:425] conv2 <- pool1
I0822 19:51:41.621948 14094 net.cpp:399] conv2 -> conv2
I0822 19:51:41.626768 14094 net.cpp:141] Setting up conv2
I0822 19:51:41.626778 14094 net.cpp:148] Top shape: 500 128 16 50 (51200000)
I0822 19:51:41.626781 14094 net.cpp:156] Memory required for data: 1132802000
I0822 19:51:41.626787 14094 layer_factory.hpp:77] Creating layer relu2
I0822 19:51:41.626791 14094 net.cpp:91] Creating Layer relu2
I0822 19:51:41.626794 14094 net.cpp:425] relu2 <- conv2
I0822 19:51:41.626797 14094 net.cpp:386] relu2 -> conv2 (in-place)
I0822 19:51:41.626907 14094 net.cpp:141] Setting up relu2
I0822 19:51:41.626914 14094 net.cpp:148] Top shape: 500 128 16 50 (51200000)
I0822 19:51:41.626916 14094 net.cpp:156] Memory required for data: 1337602000
I0822 19:51:41.626919 14094 layer_factory.hpp:77] Creating layer pool2
I0822 19:51:41.626924 14094 net.cpp:91] Creating Layer pool2
I0822 19:51:41.626925 14094 net.cpp:425] pool2 <- conv2
I0822 19:51:41.626929 14094 net.cpp:399] pool2 -> pool2
I0822 19:51:41.626952 14094 net.cpp:141] Setting up pool2
I0822 19:51:41.626957 14094 net.cpp:148] Top shape: 500 128 8 25 (12800000)
I0822 19:51:41.626960 14094 net.cpp:156] Memory required for data: 1388802000
I0822 19:51:41.626961 14094 layer_factory.hpp:77] Creating layer conv3
I0822 19:51:41.626967 14094 net.cpp:91] Creating Layer conv3
I0822 19:51:41.626971 14094 net.cpp:425] conv3 <- pool2
I0822 19:51:41.626974 14094 net.cpp:399] conv3 -> conv3
I0822 19:51:41.633733 14094 net.cpp:141] Setting up conv3
I0822 19:51:41.633745 14094 net.cpp:148] Top shape: 500 256 8 25 (25600000)
I0822 19:51:41.633749 14094 net.cpp:156] Memory required for data: 1491202000
I0822 19:51:41.633756 14094 layer_factory.hpp:77] Creating layer relu3
I0822 19:51:41.633762 14094 net.cpp:91] Creating Layer relu3
I0822 19:51:41.633764 14094 net.cpp:425] relu3 <- conv3
I0822 19:51:41.633769 14094 net.cpp:386] relu3 -> conv3 (in-place)
I0822 19:51:41.633877 14094 net.cpp:141] Setting up relu3
I0822 19:51:41.633883 14094 net.cpp:148] Top shape: 500 256 8 25 (25600000)
I0822 19:51:41.633887 14094 net.cpp:156] Memory required for data: 1593602000
I0822 19:51:41.633888 14094 layer_factory.hpp:77] Creating layer conv3_5
I0822 19:51:41.633895 14094 net.cpp:91] Creating Layer conv3_5
I0822 19:51:41.633898 14094 net.cpp:425] conv3_5 <- conv3
I0822 19:51:41.633903 14094 net.cpp:399] conv3_5 -> conv3_5
I0822 19:51:41.658756 14094 net.cpp:141] Setting up conv3_5
I0822 19:51:41.658776 14094 net.cpp:148] Top shape: 500 512 8 25 (51200000)
I0822 19:51:41.658778 14094 net.cpp:156] Memory required for data: 1798402000
I0822 19:51:41.658784 14094 layer_factory.hpp:77] Creating layer relu3_5
I0822 19:51:41.658790 14094 net.cpp:91] Creating Layer relu3_5
I0822 19:51:41.658793 14094 net.cpp:425] relu3_5 <- conv3_5
I0822 19:51:41.658797 14094 net.cpp:386] relu3_5 -> conv3_5 (in-place)
I0822 19:51:41.658982 14094 net.cpp:141] Setting up relu3_5
I0822 19:51:41.658989 14094 net.cpp:148] Top shape: 500 512 8 25 (51200000)
I0822 19:51:41.658993 14094 net.cpp:156] Memory required for data: 2003202000
I0822 19:51:41.658994 14094 layer_factory.hpp:77] Creating layer pool3
I0822 19:51:41.658999 14094 net.cpp:91] Creating Layer pool3
I0822 19:51:41.659001 14094 net.cpp:425] pool3 <- conv3_5
I0822 19:51:41.659005 14094 net.cpp:399] pool3 -> pool3
I0822 19:51:41.659036 14094 net.cpp:141] Setting up pool3
I0822 19:51:41.659041 14094 net.cpp:148] Top shape: 500 512 4 13 (13312000)
I0822 19:51:41.659044 14094 net.cpp:156] Memory required for data: 2056450000
I0822 19:51:41.659045 14094 layer_factory.hpp:77] Creating layer conv4
I0822 19:51:41.659054 14094 net.cpp:91] Creating Layer conv4
I0822 19:51:41.659056 14094 net.cpp:425] conv4 <- pool3
I0822 19:51:41.659060 14094 net.cpp:399] conv4 -> conv4
I0822 19:51:41.707420 14094 net.cpp:141] Setting up conv4
I0822 19:51:41.707438 14094 net.cpp:148] Top shape: 500 512 4 13 (13312000)
I0822 19:51:41.707442 14094 net.cpp:156] Memory required for data: 2109698000
I0822 19:51:41.707450 14094 layer_factory.hpp:77] Creating layer relu4
I0822 19:51:41.707456 14094 net.cpp:91] Creating Layer relu4
I0822 19:51:41.707459 14094 net.cpp:425] relu4 <- conv4
I0822 19:51:41.707463 14094 net.cpp:386] relu4 -> conv4 (in-place)
I0822 19:51:41.707573 14094 net.cpp:141] Setting up relu4
I0822 19:51:41.707581 14094 net.cpp:148] Top shape: 500 512 4 13 (13312000)
I0822 19:51:41.707583 14094 net.cpp:156] Memory required for data: 2162946000
I0822 19:51:41.707586 14094 layer_factory.hpp:77] Creating layer fc1
I0822 19:51:41.707593 14094 net.cpp:91] Creating Layer fc1
I0822 19:51:41.707595 14094 net.cpp:425] fc1 <- conv4
I0822 19:51:41.707610 14094 net.cpp:399] fc1 -> fc1
I0822 19:51:43.914322 14094 net.cpp:141] Setting up fc1
I0822 19:51:43.914343 14094 net.cpp:148] Top shape: 500 4096 1 1 (2048000)
I0822 19:51:43.914346 14094 net.cpp:156] Memory required for data: 2171138000
I0822 19:51:43.914352 14094 layer_factory.hpp:77] Creating layer relu5
I0822 19:51:43.914360 14094 net.cpp:91] Creating Layer relu5
I0822 19:51:43.914362 14094 net.cpp:425] relu5 <- fc1
I0822 19:51:43.914366 14094 net.cpp:386] relu5 -> fc1 (in-place)
I0822 19:51:43.914489 14094 net.cpp:141] Setting up relu5
I0822 19:51:43.914496 14094 net.cpp:148] Top shape: 500 4096 1 1 (2048000)
I0822 19:51:43.914499 14094 net.cpp:156] Memory required for data: 2179330000
I0822 19:51:43.914501 14094 layer_factory.hpp:77] Creating layer fc2
I0822 19:51:43.914511 14094 net.cpp:91] Creating Layer fc2
I0822 19:51:43.914515 14094 net.cpp:425] fc2 <- fc1
I0822 19:51:43.914520 14094 net.cpp:399] fc2 -> fc2
I0822 19:51:44.254958 14094 net.cpp:141] Setting up fc2
I0822 19:51:44.254976 14094 net.cpp:148] Top shape: 500 4096 1 1 (2048000)
I0822 19:51:44.254979 14094 net.cpp:156] Memory required for data: 2187522000
I0822 19:51:44.254984 14094 layer_factory.hpp:77] Creating layer relu6
I0822 19:51:44.254992 14094 net.cpp:91] Creating Layer relu6
I0822 19:51:44.254994 14094 net.cpp:425] relu6 <- fc2
I0822 19:51:44.254999 14094 net.cpp:386] relu6 -> fc2 (in-place)
I0822 19:51:44.255195 14094 net.cpp:141] Setting up relu6
I0822 19:51:44.255203 14094 net.cpp:148] Top shape: 500 4096 1 1 (2048000)
I0822 19:51:44.255206 14094 net.cpp:156] Memory required for data: 2195714000
I0822 19:51:44.255208 14094 layer_factory.hpp:77] Creating layer fc_class
I0822 19:51:44.255216 14094 net.cpp:91] Creating Layer fc_class
I0822 19:51:44.255219 14094 net.cpp:425] fc_class <- fc2
I0822 19:51:44.255224 14094 net.cpp:399] fc_class -> fc_class
I0822 19:51:51.555145 14094 net.cpp:141] Setting up fc_class
I0822 19:51:51.555166 14094 net.cpp:148] Top shape: 500 88172 1 1 (44086000)
I0822 19:51:51.555168 14094 net.cpp:156] Memory required for data: 2372058000
I0822 19:51:51.555174 14094 layer_factory.hpp:77] Creating layer fc_class_fc_class_0_split
I0822 19:51:51.555181 14094 net.cpp:91] Creating Layer fc_class_fc_class_0_split
I0822 19:51:51.555184 14094 net.cpp:425] fc_class_fc_class_0_split <- fc_class
I0822 19:51:51.555189 14094 net.cpp:399] fc_class_fc_class_0_split -> fc_class_fc_class_0_split_0
I0822 19:51:51.555197 14094 net.cpp:399] fc_class_fc_class_0_split -> fc_class_fc_class_0_split_1
I0822 19:51:51.555228 14094 net.cpp:141] Setting up fc_class_fc_class_0_split
I0822 19:51:51.555236 14094 net.cpp:148] Top shape: 500 88172 1 1 (44086000)
I0822 19:51:51.555239 14094 net.cpp:148] Top shape: 500 88172 1 1 (44086000)
I0822 19:51:51.555241 14094 net.cpp:156] Memory required for data: 2724746000
I0822 19:51:51.555243 14094 layer_factory.hpp:77] Creating layer prob
I0822 19:51:51.555248 14094 net.cpp:91] Creating Layer prob
I0822 19:51:51.555250 14094 net.cpp:425] prob <- fc_class_fc_class_0_split_0
I0822 19:51:51.555253 14094 net.cpp:399] prob -> prob
I0822 19:51:51.555440 14094 net.cpp:141] Setting up prob
I0822 19:51:51.555446 14094 net.cpp:148] Top shape: 500 88172 1 1 (44086000)
I0822 19:51:51.555449 14094 net.cpp:156] Memory required for data: 2901090000
I0822 19:51:51.555451 14094 layer_factory.hpp:77] Creating layer loss
I0822 19:51:51.555461 14094 net.cpp:91] Creating Layer loss
I0822 19:51:51.555464 14094 net.cpp:425] loss <- fc_class_fc_class_0_split_1
I0822 19:51:51.555466 14094 net.cpp:425] loss <- label
I0822 19:51:51.555470 14094 net.cpp:399] loss -> loss
…
I0822 19:51:51.604576 14094 net.cpp:313] The NetState phase (1) differed from the phase (0) specified by a rule in layer data
I0822 19:51:51.604704 14094 net.cpp:49] Initializing net from parameters: 
name: "Bigram_Net_VGG"
state {
  phase: TEST
}
layer {
  name: "data"
  type: "Data"
  top: "data"
  top: "label"
  include {
    phase: TEST
  }
  transform_param {
  }
  data_param {
    source: "examples/jr-station/img_part_test_lmdb"
    batch_size: 200
    backend: LMDB
  }
  input_param {
    shape {
      dim: 1
      dim: 1
      dim: 32
      dim: 100
    }
  }
}
layer {
  name: "conv1"
  type: "Convolution"
  bottom: "data"
  top: "conv1"
  param {
    lr_mult: 1
    decay_mult: 1
  }
  param {
    lr_mult: 2
    decay_mult: 0
  }
  convolution_param {
    num_output: 64
    pad: 2
    kernel_size: 5
    stride: 1
    weight_filler {
      type: "gaussian"
      std: 0.01
    }
    bias_filler {
      type: "constant"
      value: 0
    }
  }
}
layer {
  name: "relu1"
  type: "ReLU"
  bottom: "conv1"
  top: "conv1"
}
layer {
  name: "pool1"
  type: "Pooling"
  bottom: "conv1"
  top: "pool1"
  pooling_param {
    pool: MAX
    kernel_size: 2
    stride: 2
    pad: 0
  }
}
layer {
  name: "conv2"
  type: "Convolution"
  bottom: "pool1"
  top: "conv2"
  param {
    lr_mult: 1
    decay_mult: 1
  }
  param {
    lr_mult: 2
    decay_mult: 0
  }
  convolution_param {
    num_output: 128
    pad: 2
    kernel_size: 5
    stride: 1
    weight_filler {
      type: "gaussian"
      std: 0.01
    }
    bias_filler {
      type: "constant"
      value: 0
    }
  }
}
layer {
  name: "relu2"
  type: "ReLU"
  bottom: "conv2"
  top: "conv2"
}
layer {
  name: "pool2"
  type: "Pooling"
  bottom: "conv2"
  top: "pool2"
  pooling_param {
    pool: MAX
    kernel_size: 2
    stride: 2
    pad: 0
  }
}
layer {
  name: "conv3"
  type: "Convolution"
  bottom: "pool2"
  top: "conv3"
  param {
    lr_mult: 1
    decay_mult: 1
  }
  param {
    lr_mult: 2
    decay_mult: 0
  }
  convolution_param {
    num_output: 256
    pad: 1
    kernel_size: 3
    stride: 1
    weight_filler {
      type: "gaussian"
      std: 0.01
    }
    bias_filler {
      type: "constant"
      value: 0
    }
  }
}
layer {
  name: "relu3"
  type: "ReLU"
  bottom: "conv3"
  top: "conv3"
}
layer {
  name: "conv3_5"
  type: "Convolution"
  bottom: "conv3"
  top: "conv3_5"
  param {
    lr_mult: 1
    decay_mult: 1
  }
  param {
    lr_mult: 2
    decay_mult: 0
  }
  convolution_param {
    num_output: 512
    pad: 1
    kernel_size: 3
    stride: 1
    weight_filler {
      type: "gaussian"
      std: 0.01
    }
    bias_filler {
      type: "constant"
      value: 0
    }
  }
}
layer {
  name: "relu3_5"
  type: "ReLU"
  bottom: "conv3_5"
  top: "conv3_5"
}
layer {
  name: "pool3"
  type: "Pooling"
  bottom: "conv3_5"
  top: "pool3"
  pooling_param {
    pool: MAX
    kernel_size: 2
    stride: 2
    pad: 0
  }
}
layer {
  name: "conv4"
  type: "Convolution"
  bottom: "pool3"
  top: "conv4"
  param {
    lr_mult: 1
    decay_mult: 1
  }
  param {
    lr_mult: 2
    decay_mult: 0
  }
  convolution_param {
    num_output: 512
    pad: 1
    kernel_size: 3
    stride: 1
    weight_filler {
      type: "gaussian"
      std: 0.01
    }
    bias_filler {
      type: "constant"
      value: 0
    }
  }
}
layer {
  name: "relu4"
  type: "ReLU"
  bottom: "conv4"
  top: "conv4"
}
layer {
  name: "fc1"
  type: "Convolution"
  bottom: "conv4"
  top: "fc1"
  param {
    lr_mult: 1
    decay_mult: 1
  }
  param {
    lr_mult: 2
    decay_mult: 0
  }
  convolution_param {
    num_output: 4096
    pad: 0
    stride: 1
    weight_filler {
      type: "gaussian"
      std: 0.01
    }
    bias_filler {
      type: "constant"
      value: 0
    }
    kernel_h: 4
    kernel_w: 13
  }
}
layer {
  name: "relu5"
  type: "ReLU"
  bottom: "fc1"
  top: "fc1"
}
layer {
  name: "fc2"
  type: "Convolution"
  bottom: "fc1"
  top: "fc2"
  param {
    lr_mult: 1
    decay_mult: 1
  }
  param {
    lr_mult: 2
    decay_mult: 0
  }
  convolution_param {
    num_output: 4096
    pad: 0
    kernel_size: 1
    stride: 1
    weight_filler {
      type: "gaussian"
      std: 0.01
    }
    bias_filler {
      type: "constant"
      value: 0
    }
  }
}
layer {
  name: "relu6"
  type: "ReLU"
  bottom: "fc2"
  top: "fc2"
}
layer {
  name: "fc_class"
  type: "Convolution"
  bottom: "fc2"
  top: "fc_class"
  param {
    lr_mult: 1
    decay_mult: 1
  }
  param {
    lr_mult: 2
    decay_mult: 0
  }
  convolution_param {
    num_output: 88172
    pad: 0
    kernel_size: 1
    stride: 1
    weight_filler {
      type: "gaussian"
      std: 0.01
    }
    bias_filler {
      type: "constant"
      value: 0
    }
  }
}
layer {
  name: "prob"
  type: "Softmax"
  bottom: "fc_class"
  top: "prob"
}
layer {
  name: "loss"
  type: "SoftmaxWithLoss"
  bottom: "fc_class"
  bottom: "label"
  top: "loss"
}
I0822 19:51:51.604768 14094 layer_factory.hpp:77] Creating layer data
I0822 19:51:51.604882 14094 net.cpp:91] Creating Layer data
I0822 19:51:51.604888 14094 net.cpp:399] data -> data
I0822 19:51:51.604895 14094 net.cpp:399] data -> label
I0822 19:51:51.605460 14132 db_lmdb.cpp:35] Opened lmdb examples/jr-station/img_part_test_lmdb
I0822 19:51:51.605583 14094 data_layer.cpp:41] output data size: 200,1,32,100
I0822 19:51:51.608737 14094 net.cpp:141] Setting up data
I0822 19:51:51.608757 14094 net.cpp:148] Top shape: 200 1 32 100 (640000)
I0822 19:51:51.608762 14094 net.cpp:148] Top shape: 200 (200)
I0822 19:51:51.608763 14094 net.cpp:156] Memory required for data: 2560800
I0822 19:51:51.608767 14094 layer_factory.hpp:77] Creating layer conv1
I0822 19:51:51.608779 14094 net.cpp:91] Creating Layer conv1
I0822 19:51:51.608783 14094 net.cpp:425] conv1 <- data
I0822 19:51:51.608789 14094 net.cpp:399] conv1 -> conv1
I0822 19:51:51.610008 14094 net.cpp:141] Setting up conv1
I0822 19:51:51.610019 14094 net.cpp:148] Top shape: 200 64 32 100 (40960000)
I0822 19:51:51.610023 14094 net.cpp:156] Memory required for data: 166400800
I0822 19:51:51.610029 14094 layer_factory.hpp:77] Creating layer relu1
I0822 19:51:51.610034 14094 net.cpp:91] Creating Layer relu1
I0822 19:51:51.610039 14094 net.cpp:425] relu1 <- conv1
I0822 19:51:51.610045 14094 net.cpp:386] relu1 -> conv1 (in-place)
I0822 19:51:51.610249 14094 net.cpp:141] Setting up relu1
I0822 19:51:51.610257 14094 net.cpp:148] Top shape: 200 64 32 100 (40960000)
I0822 19:51:51.610260 14094 net.cpp:156] Memory required for data: 330240800
I0822 19:51:51.610262 14094 layer_factory.hpp:77] Creating layer pool1
I0822 19:51:51.610267 14094 net.cpp:91] Creating Layer pool1
I0822 19:51:51.610270 14094 net.cpp:425] pool1 <- conv1
I0822 19:51:51.610275 14094 net.cpp:399] pool1 -> pool1
I0822 19:51:51.610304 14094 net.cpp:141] Setting up pool1
I0822 19:51:51.610308 14094 net.cpp:148] Top shape: 200 64 16 50 (10240000)
I0822 19:51:51.610311 14094 net.cpp:156] Memory required for data: 371200800
I0822 19:51:51.610319 14094 layer_factory.hpp:77] Creating layer conv2
I0822 19:51:51.610327 14094 net.cpp:91] Creating Layer conv2
I0822 19:51:51.610329 14094 net.cpp:425] conv2 <- pool1
I0822 19:51:51.610334 14094 net.cpp:399] conv2 -> conv2
I0822 19:51:51.616597 14094 net.cpp:141] Setting up conv2
I0822 19:51:51.616612 14094 net.cpp:148] Top shape: 200 128 16 50 (20480000)
I0822 19:51:51.616617 14094 net.cpp:156] Memory required for data: 453120800
I0822 19:51:51.616626 14094 layer_factory.hpp:77] Creating layer relu2
I0822 19:51:51.616636 14094 net.cpp:91] Creating Layer relu2
I0822 19:51:51.616639 14094 net.cpp:425] relu2 <- conv2
I0822 19:51:51.616647 14094 net.cpp:386] relu2 -> conv2 (in-place)
I0822 19:51:51.616767 14094 net.cpp:141] Setting up relu2
I0822 19:51:51.616775 14094 net.cpp:148] Top shape: 200 128 16 50 (20480000)
I0822 19:51:51.616777 14094 net.cpp:156] Memory required for data: 535040800
I0822 19:51:51.616780 14094 layer_factory.hpp:77] Creating layer pool2
I0822 19:51:51.616786 14094 net.cpp:91] Creating Layer pool2
I0822 19:51:51.616788 14094 net.cpp:425] pool2 <- conv2
I0822 19:51:51.616791 14094 net.cpp:399] pool2 -> pool2
I0822 19:51:51.616822 14094 net.cpp:141] Setting up pool2
I0822 19:51:51.616827 14094 net.cpp:148] Top shape: 200 128 8 25 (5120000)
I0822 19:51:51.616828 14094 net.cpp:156] Memory required for data: 555520800
I0822 19:51:51.616830 14094 layer_factory.hpp:77] Creating layer conv3
I0822 19:51:51.616838 14094 net.cpp:91] Creating Layer conv3
I0822 19:51:51.616840 14094 net.cpp:425] conv3 <- pool2
I0822 19:51:51.616845 14094 net.cpp:399] conv3 -> conv3
I0822 19:51:51.623597 14094 net.cpp:141] Setting up conv3
I0822 19:51:51.623607 14094 net.cpp:148] Top shape: 200 256 8 25 (10240000)
I0822 19:51:51.623611 14094 net.cpp:156] Memory required for data: 596480800
I0822 19:51:51.623618 14094 layer_factory.hpp:77] Creating layer relu3
I0822 19:51:51.623623 14094 net.cpp:91] Creating Layer relu3
I0822 19:51:51.623627 14094 net.cpp:425] relu3 <- conv3
I0822 19:51:51.623631 14094 net.cpp:386] relu3 -> conv3 (in-place)
I0822 19:51:51.623823 14094 net.cpp:141] Setting up relu3
I0822 19:51:51.623831 14094 net.cpp:148] Top shape: 200 256 8 25 (10240000)
I0822 19:51:51.623833 14094 net.cpp:156] Memory required for data: 637440800
I0822 19:51:51.623836 14094 layer_factory.hpp:77] Creating layer conv3_5
I0822 19:51:51.623843 14094 net.cpp:91] Creating Layer conv3_5
I0822 19:51:51.623847 14094 net.cpp:425] conv3_5 <- conv3
I0822 19:51:51.623852 14094 net.cpp:399] conv3_5 -> conv3_5
I0822 19:51:51.648480 14094 net.cpp:141] Setting up conv3_5
I0822 19:51:51.648499 14094 net.cpp:148] Top shape: 200 512 8 25 (20480000)
I0822 19:51:51.648501 14094 net.cpp:156] Memory required for data: 719360800
I0822 19:51:51.648507 14094 layer_factory.hpp:77] Creating layer relu3_5
I0822 19:51:51.648514 14094 net.cpp:91] Creating Layer relu3_5
I0822 19:51:51.648517 14094 net.cpp:425] relu3_5 <- conv3_5
I0822 19:51:51.648521 14094 net.cpp:386] relu3_5 -> conv3_5 (in-place)
I0822 19:51:51.648710 14094 net.cpp:141] Setting up relu3_5
I0822 19:51:51.648718 14094 net.cpp:148] Top shape: 200 512 8 25 (20480000)
I0822 19:51:51.648721 14094 net.cpp:156] Memory required for data: 801280800
I0822 19:51:51.648723 14094 layer_factory.hpp:77] Creating layer pool3
I0822 19:51:51.648728 14094 net.cpp:91] Creating Layer pool3
I0822 19:51:51.648741 14094 net.cpp:425] pool3 <- conv3_5
I0822 19:51:51.648746 14094 net.cpp:399] pool3 -> pool3
I0822 19:51:51.648780 14094 net.cpp:141] Setting up pool3
I0822 19:51:51.648785 14094 net.cpp:148] Top shape: 200 512 4 13 (5324800)
I0822 19:51:51.648788 14094 net.cpp:156] Memory required for data: 822580000
I0822 19:51:51.648790 14094 layer_factory.hpp:77] Creating layer conv4
I0822 19:51:51.648797 14094 net.cpp:91] Creating Layer conv4
I0822 19:51:51.648800 14094 net.cpp:425] conv4 <- pool3
I0822 19:51:51.648805 14094 net.cpp:399] conv4 -> conv4
I0822 19:51:51.697389 14094 net.cpp:141] Setting up conv4
I0822 19:51:51.697408 14094 net.cpp:148] Top shape: 200 512 4 13 (5324800)
I0822 19:51:51.697412 14094 net.cpp:156] Memory required for data: 843879200
I0822 19:51:51.697419 14094 layer_factory.hpp:77] Creating layer relu4
I0822 19:51:51.697427 14094 net.cpp:91] Creating Layer relu4
I0822 19:51:51.697429 14094 net.cpp:425] relu4 <- conv4
I0822 19:51:51.697433 14094 net.cpp:386] relu4 -> conv4 (in-place)
I0822 19:51:51.697552 14094 net.cpp:141] Setting up relu4
I0822 19:51:51.697561 14094 net.cpp:148] Top shape: 200 512 4 13 (5324800)
I0822 19:51:51.697562 14094 net.cpp:156] Memory required for data: 865178400
I0822 19:51:51.697564 14094 layer_factory.hpp:77] Creating layer fc1
I0822 19:51:51.697573 14094 net.cpp:91] Creating Layer fc1
I0822 19:51:51.697576 14094 net.cpp:425] fc1 <- conv4
I0822 19:51:51.697580 14094 net.cpp:399] fc1 -> fc1
I0822 19:51:53.901566 14094 net.cpp:141] Setting up fc1
I0822 19:51:53.901585 14094 net.cpp:148] Top shape: 200 4096 1 1 (819200)
I0822 19:51:53.901588 14094 net.cpp:156] Memory required for data: 868455200
I0822 19:51:53.901594 14094 layer_factory.hpp:77] Creating layer relu5
I0822 19:51:53.901600 14094 net.cpp:91] Creating Layer relu5
I0822 19:51:53.901603 14094 net.cpp:425] relu5 <- fc1
I0822 19:51:53.901607 14094 net.cpp:386] relu5 -> fc1 (in-place)
I0822 19:51:53.901806 14094 net.cpp:141] Setting up relu5
I0822 19:51:53.901815 14094 net.cpp:148] Top shape: 200 4096 1 1 (819200)
I0822 19:51:53.901818 14094 net.cpp:156] Memory required for data: 871732000
I0822 19:51:53.901820 14094 layer_factory.hpp:77] Creating layer fc2
I0822 19:51:53.901830 14094 net.cpp:91] Creating Layer fc2
I0822 19:51:53.901834 14094 net.cpp:425] fc2 <- fc1
I0822 19:51:53.901837 14094 net.cpp:399] fc2 -> fc2
I0822 19:51:54.242168 14094 net.cpp:141] Setting up fc2
I0822 19:51:54.242185 14094 net.cpp:148] Top shape: 200 4096 1 1 (819200)
I0822 19:51:54.242188 14094 net.cpp:156] Memory required for data: 875008800
I0822 19:51:54.242195 14094 layer_factory.hpp:77] Creating layer relu6
I0822 19:51:54.242202 14094 net.cpp:91] Creating Layer relu6
I0822 19:51:54.242204 14094 net.cpp:425] relu6 <- fc2
I0822 19:51:54.242208 14094 net.cpp:386] relu6 -> fc2 (in-place)
I0822 19:51:54.242399 14094 net.cpp:141] Setting up relu6
I0822 19:51:54.242408 14094 net.cpp:148] Top shape: 200 4096 1 1 (819200)
I0822 19:51:54.242410 14094 net.cpp:156] Memory required for data: 878285600
I0822 19:51:54.242413 14094 layer_factory.hpp:77] Creating layer fc_class
I0822 19:51:54.242421 14094 net.cpp:91] Creating Layer fc_class
I0822 19:51:54.242424 14094 net.cpp:425] fc_class <- fc2
I0822 19:51:54.242429 14094 net.cpp:399] fc_class -> fc_class
I0822 19:52:01.541563 14094 net.cpp:141] Setting up fc_class
I0822 19:52:01.541579 14094 net.cpp:148] Top shape: 200 88172 1 1 (17634400)
I0822 19:52:01.541582 14094 net.cpp:156] Memory required for data: 948823200
I0822 19:52:01.541589 14094 layer_factory.hpp:77] Creating layer fc_class_fc_class_0_split
I0822 19:52:01.541596 14094 net.cpp:91] Creating Layer fc_class_fc_class_0_split
I0822 19:52:01.541599 14094 net.cpp:425] fc_class_fc_class_0_split <- fc_class
I0822 19:52:01.541604 14094 net.cpp:399] fc_class_fc_class_0_split -> fc_class_fc_class_0_split_0
I0822 19:52:01.541610 14094 net.cpp:399] fc_class_fc_class_0_split -> fc_class_fc_class_0_split_1
I0822 19:52:01.541646 14094 net.cpp:141] Setting up fc_class_fc_class_0_split
I0822 19:52:01.541651 14094 net.cpp:148] Top shape: 200 88172 1 1 (17634400)
I0822 19:52:01.541666 14094 net.cpp:148] Top shape: 200 88172 1 1 (17634400)
I0822 19:52:01.541667 14094 net.cpp:156] Memory required for data: 1089898400
I0822 19:52:01.541671 14094 layer_factory.hpp:77] Creating layer prob
I0822 19:52:01.541674 14094 net.cpp:91] Creating Layer prob
I0822 19:52:01.541677 14094 net.cpp:425] prob <- fc_class_fc_class_0_split_0
I0822 19:52:01.541682 14094 net.cpp:399] prob -> prob
I0822 19:52:01.542106 14094 net.cpp:141] Setting up prob
I0822 19:52:01.542115 14094 net.cpp:148] Top shape: 200 88172 1 1 (17634400)
I0822 19:52:01.542117 14094 net.cpp:156] Memory required for data: 1160436000
I0822 19:52:01.542120 14094 layer_factory.hpp:77] Creating layer loss
I0822 19:52:01.542124 14094 net.cpp:91] Creating Layer loss
I0822 19:52:01.542126 14094 net.cpp:425] loss <- fc_class_fc_class_0_split_1
I0822 19:52:01.542129 14094 net.cpp:425] loss <- label
I0822 19:52:01.542135 14094 net.cpp:399] loss -> loss
…
