…
I0831 10:11:16.236775 26733 net.cpp:313] The NetState phase (0) differed from the phase (1) specified by a rule in layer data
I0831 10:11:16.236867 26733 net.cpp:49] Initializing net from parameters: 
name: "Bigram_Net_VGG"
state {
  phase: TRAIN
}
layer {
  name: "data"
  type: "Data"
  top: "data"
  top: "label"
  include {
    phase: TRAIN
  }
  transform_param {
  }
  data_param {
    source: "examples/jr-station/img_part_train_lmdb"
    batch_size: 300
    backend: LMDB
  }
  input_param {
    shape {
      dim: 1
      dim: 1
      dim: 32
      dim: 100
    }
  }
}
layer {
  name: "conv1"
  type: "Convolution"
  bottom: "data"
  top: "conv1"
  param {
    lr_mult: 1
    decay_mult: 1
  }
  param {
    lr_mult: 2
    decay_mult: 0
  }
  convolution_param {
    num_output: 64
    pad: 2
    kernel_size: 5
    stride: 1
    weight_filler {
      type: "gaussian"
      std: 0.01
    }
    bias_filler {
      type: "constant"
      value: 0
    }
  }
}
layer {
  name: "relu1"
  type: "ReLU"
  bottom: "conv1"
  top: "conv1"
}
layer {
  name: "pool1"
  type: "Pooling"
  bottom: "conv1"
  top: "pool1"
  pooling_param {
    pool: MAX
    kernel_size: 2
    stride: 2
    pad: 0
  }
}
layer {
  name: "conv2"
  type: "Convolution"
  bottom: "pool1"
  top: "conv2"
  param {
    lr_mult: 1
    decay_mult: 1
  }
  param {
    lr_mult: 2
    decay_mult: 0
  }
  convolution_param {
    num_output: 128
    pad: 2
    kernel_size: 5
    stride: 1
    weight_filler {
      type: "gaussian"
      std: 0.01
    }
    bias_filler {
      type: "constant"
      value: 0
    }
  }
}
layer {
  name: "relu2"
  type: "ReLU"
  bottom: "conv2"
  top: "conv2"
}
layer {
  name: "pool2"
  type: "Pooling"
  bottom: "conv2"
  top: "pool2"
  pooling_param {
    pool: MAX
    kernel_size: 2
    stride: 2
    pad: 0
  }
}
layer {
  name: "conv3"
  type: "Convolution"
  bottom: "pool2"
  top: "conv3"
  param {
    lr_mult: 1
    decay_mult: 1
  }
  param {
    lr_mult: 2
    decay_mult: 0
  }
  convolution_param {
    num_output: 256
    pad: 1
    kernel_size: 3
    stride: 1
    weight_filler {
      type: "gaussian"
      std: 0.01
    }
    bias_filler {
      type: "constant"
      value: 0
    }
  }
}
layer {
  name: "relu3"
  type: "ReLU"
  bottom: "conv3"
  top: "conv3"
}
layer {
  name: "conv3_5"
  type: "Convolution"
  bottom: "conv3"
  top: "conv3_5"
  param {
    lr_mult: 1
    decay_mult: 1
  }
  param {
    lr_mult: 2
    decay_mult: 0
  }
  convolution_param {
    num_output: 512
    pad: 1
    kernel_size: 3
    stride: 1
    weight_filler {
      type: "gaussian"
      std: 0.01
    }
    bias_filler {
      type: "constant"
      value: 0
    }
  }
}
layer {
  name: "relu3_5"
  type: "ReLU"
  bottom: "conv3_5"
  top: "conv3_5"
}
layer {
  name: "pool3"
  type: "Pooling"
  bottom: "conv3_5"
  top: "pool3"
  pooling_param {
    pool: MAX
    kernel_size: 2
    stride: 2
    pad: 0
  }
}
layer {
  name: "conv4"
  type: "Convolution"
  bottom: "pool3"
  top: "conv4"
  param {
    lr_mult: 1
    decay_mult: 1
  }
  param {
    lr_mult: 2
    decay_mult: 0
  }
  convolution_param {
    num_output: 512
    pad: 1
    kernel_size: 3
    stride: 1
    weight_filler {
      type: "gaussian"
      std: 0.01
    }
    bias_filler {
      type: "constant"
      value: 0
    }
  }
}
layer {
  name: "relu4"
  type: "ReLU"
  bottom: "conv4"
  top: "conv4"
}
layer {
  name: "fc1"
  type: "Convolution"
  bottom: "conv4"
  top: "fc1"
  param {
    lr_mult: 1
    decay_mult: 1
  }
  param {
    lr_mult: 2
    decay_mult: 0
  }
  convolution_param {
    num_output: 4096
    pad: 0
    stride: 1
    weight_filler {
      type: "gaussian"
      std: 0.01
    }
    bias_filler {
      type: "constant"
      value: 0
    }
    kernel_h: 4
    kernel_w: 13
  }
}
layer {
  name: "relu5"
  type: "ReLU"
  bottom: "fc1"
  top: "fc1"
}
layer {
  name: "fc2"
  type: "Convolution"
  bottom: "fc1"
  top: "fc2"
  param {
    lr_mult: 1
    decay_mult: 1
  }
  param {
    lr_mult: 2
    decay_mult: 0
  }
  convolution_param {
    num_output: 4096
    pad: 0
    kernel_size: 1
    stride: 1
    weight_filler {
      type: "gaussian"
      std: 0.01
    }
    bias_filler {
      type: "constant"
      value: 0
    }
  }
}
layer {
  name: "relu6"
  type: "ReLU"
  bottom: "fc2"
  top: "fc2"
}
layer {
  name: "fc_class"
  type: "Convolution"
  bottom: "fc2"
  top: "fc_class"
  param {
    lr_mult: 1
    decay_mult: 1
  }
  param {
    lr_mult: 2
    decay_mult: 0
  }
  convolution_param {
    num_output: 10000
    pad: 0
    kernel_size: 1
    stride: 1
    weight_filler {
      type: "gaussian"
      std: 0.01
    }
    bias_filler {
      type: "constant"
      value: 0
    }
  }
}
layer {
  name: "prob"
  type: "Softmax"
  bottom: "fc_class"
  top: "prob"
}
layer {
  name: "loss"
  type: "SoftmaxWithLoss"
  bottom: "fc_class"
  bottom: "label"
  top: "loss"
}
I0831 10:11:16.236939 26733 layer_factory.hpp:77] Creating layer data
I0831 10:11:16.237392 26733 net.cpp:91] Creating Layer data
I0831 10:11:16.237399 26733 net.cpp:399] data -> data
I0831 10:11:16.237416 26733 net.cpp:399] data -> label
I0831 10:11:16.237926 26740 db_lmdb.cpp:35] Opened lmdb examples/jr-station/img_part_train_lmdb
I0831 10:11:16.247525 26733 data_layer.cpp:41] output data size: 300,1,32,100
I0831 10:11:16.252233 26733 net.cpp:141] Setting up data
I0831 10:11:16.252254 26733 net.cpp:148] Top shape: 300 1 32 100 (960000)
I0831 10:11:16.252257 26733 net.cpp:148] Top shape: 300 (300)
I0831 10:11:16.252259 26733 net.cpp:156] Memory required for data: 3841200
I0831 10:11:16.252267 26733 layer_factory.hpp:77] Creating layer conv1
I0831 10:11:16.252281 26733 net.cpp:91] Creating Layer conv1
I0831 10:11:16.252286 26733 net.cpp:425] conv1 <- data
I0831 10:11:16.252295 26733 net.cpp:399] conv1 -> conv1
I0831 10:11:16.253234 26733 net.cpp:141] Setting up conv1
I0831 10:11:16.253243 26733 net.cpp:148] Top shape: 300 64 32 100 (61440000)
I0831 10:11:16.253245 26733 net.cpp:156] Memory required for data: 249601200
I0831 10:11:16.253258 26733 layer_factory.hpp:77] Creating layer relu1
I0831 10:11:16.253265 26733 net.cpp:91] Creating Layer relu1
I0831 10:11:16.253268 26733 net.cpp:425] relu1 <- conv1
I0831 10:11:16.253271 26733 net.cpp:386] relu1 -> conv1 (in-place)
I0831 10:11:16.253281 26733 net.cpp:141] Setting up relu1
I0831 10:11:16.253285 26733 net.cpp:148] Top shape: 300 64 32 100 (61440000)
I0831 10:11:16.253288 26733 net.cpp:156] Memory required for data: 495361200
I0831 10:11:16.253289 26733 layer_factory.hpp:77] Creating layer pool1
I0831 10:11:16.253294 26733 net.cpp:91] Creating Layer pool1
I0831 10:11:16.253296 26733 net.cpp:425] pool1 <- conv1
I0831 10:11:16.253303 26733 net.cpp:399] pool1 -> pool1
I0831 10:11:16.253326 26733 net.cpp:141] Setting up pool1
I0831 10:11:16.253332 26733 net.cpp:148] Top shape: 300 64 16 50 (15360000)
I0831 10:11:16.253334 26733 net.cpp:156] Memory required for data: 556801200
I0831 10:11:16.253336 26733 layer_factory.hpp:77] Creating layer conv2
I0831 10:11:16.253346 26733 net.cpp:91] Creating Layer conv2
I0831 10:11:16.253350 26733 net.cpp:425] conv2 <- pool1
I0831 10:11:16.253353 26733 net.cpp:399] conv2 -> conv2
I0831 10:11:16.257918 26733 net.cpp:141] Setting up conv2
I0831 10:11:16.257930 26733 net.cpp:148] Top shape: 300 128 16 50 (30720000)
I0831 10:11:16.257931 26733 net.cpp:156] Memory required for data: 679681200
I0831 10:11:16.257937 26733 layer_factory.hpp:77] Creating layer relu2
I0831 10:11:16.257942 26733 net.cpp:91] Creating Layer relu2
I0831 10:11:16.257944 26733 net.cpp:425] relu2 <- conv2
I0831 10:11:16.257949 26733 net.cpp:386] relu2 -> conv2 (in-place)
I0831 10:11:16.257963 26733 net.cpp:141] Setting up relu2
I0831 10:11:16.257966 26733 net.cpp:148] Top shape: 300 128 16 50 (30720000)
I0831 10:11:16.257968 26733 net.cpp:156] Memory required for data: 802561200
I0831 10:11:16.257972 26733 layer_factory.hpp:77] Creating layer pool2
I0831 10:11:16.257985 26733 net.cpp:91] Creating Layer pool2
I0831 10:11:16.257990 26733 net.cpp:425] pool2 <- conv2
I0831 10:11:16.257995 26733 net.cpp:399] pool2 -> pool2
I0831 10:11:16.258015 26733 net.cpp:141] Setting up pool2
I0831 10:11:16.258020 26733 net.cpp:148] Top shape: 300 128 8 25 (7680000)
I0831 10:11:16.258023 26733 net.cpp:156] Memory required for data: 833281200
I0831 10:11:16.258024 26733 layer_factory.hpp:77] Creating layer conv3
I0831 10:11:16.258031 26733 net.cpp:91] Creating Layer conv3
I0831 10:11:16.258033 26733 net.cpp:425] conv3 <- pool2
I0831 10:11:16.258038 26733 net.cpp:399] conv3 -> conv3
I0831 10:11:16.263906 26733 net.cpp:141] Setting up conv3
I0831 10:11:16.263916 26733 net.cpp:148] Top shape: 300 256 8 25 (15360000)
I0831 10:11:16.263917 26733 net.cpp:156] Memory required for data: 894721200
I0831 10:11:16.263923 26733 layer_factory.hpp:77] Creating layer relu3
I0831 10:11:16.263928 26733 net.cpp:91] Creating Layer relu3
I0831 10:11:16.263931 26733 net.cpp:425] relu3 <- conv3
I0831 10:11:16.263933 26733 net.cpp:386] relu3 -> conv3 (in-place)
I0831 10:11:16.263937 26733 net.cpp:141] Setting up relu3
I0831 10:11:16.263941 26733 net.cpp:148] Top shape: 300 256 8 25 (15360000)
I0831 10:11:16.263942 26733 net.cpp:156] Memory required for data: 956161200
I0831 10:11:16.263944 26733 layer_factory.hpp:77] Creating layer conv3_5
I0831 10:11:16.263950 26733 net.cpp:91] Creating Layer conv3_5
I0831 10:11:16.263954 26733 net.cpp:425] conv3_5 <- conv3
I0831 10:11:16.263958 26733 net.cpp:399] conv3_5 -> conv3_5
I0831 10:11:16.288092 26733 net.cpp:141] Setting up conv3_5
I0831 10:11:16.288106 26733 net.cpp:148] Top shape: 300 512 8 25 (30720000)
I0831 10:11:16.288110 26733 net.cpp:156] Memory required for data: 1079041200
I0831 10:11:16.288115 26733 layer_factory.hpp:77] Creating layer relu3_5
I0831 10:11:16.288120 26733 net.cpp:91] Creating Layer relu3_5
I0831 10:11:16.288121 26733 net.cpp:425] relu3_5 <- conv3_5
I0831 10:11:16.288125 26733 net.cpp:386] relu3_5 -> conv3_5 (in-place)
I0831 10:11:16.288130 26733 net.cpp:141] Setting up relu3_5
I0831 10:11:16.288133 26733 net.cpp:148] Top shape: 300 512 8 25 (30720000)
I0831 10:11:16.288136 26733 net.cpp:156] Memory required for data: 1201921200
I0831 10:11:16.288137 26733 layer_factory.hpp:77] Creating layer pool3
I0831 10:11:16.288144 26733 net.cpp:91] Creating Layer pool3
I0831 10:11:16.288148 26733 net.cpp:425] pool3 <- conv3_5
I0831 10:11:16.288151 26733 net.cpp:399] pool3 -> pool3
I0831 10:11:16.288175 26733 net.cpp:141] Setting up pool3
I0831 10:11:16.288180 26733 net.cpp:148] Top shape: 300 512 4 13 (7987200)
I0831 10:11:16.288182 26733 net.cpp:156] Memory required for data: 1233870000
I0831 10:11:16.288184 26733 layer_factory.hpp:77] Creating layer conv4
I0831 10:11:16.288190 26733 net.cpp:91] Creating Layer conv4
I0831 10:11:16.288193 26733 net.cpp:425] conv4 <- pool3
I0831 10:11:16.288197 26733 net.cpp:399] conv4 -> conv4
I0831 10:11:16.336158 26733 net.cpp:141] Setting up conv4
I0831 10:11:16.336175 26733 net.cpp:148] Top shape: 300 512 4 13 (7987200)
I0831 10:11:16.336179 26733 net.cpp:156] Memory required for data: 1265818800
I0831 10:11:16.336187 26733 layer_factory.hpp:77] Creating layer relu4
I0831 10:11:16.336194 26733 net.cpp:91] Creating Layer relu4
I0831 10:11:16.336196 26733 net.cpp:425] relu4 <- conv4
I0831 10:11:16.336199 26733 net.cpp:386] relu4 -> conv4 (in-place)
I0831 10:11:16.336205 26733 net.cpp:141] Setting up relu4
I0831 10:11:16.336208 26733 net.cpp:148] Top shape: 300 512 4 13 (7987200)
I0831 10:11:16.336211 26733 net.cpp:156] Memory required for data: 1297767600
I0831 10:11:16.336213 26733 layer_factory.hpp:77] Creating layer fc1
I0831 10:11:16.336220 26733 net.cpp:91] Creating Layer fc1
I0831 10:11:16.336221 26733 net.cpp:425] fc1 <- conv4
I0831 10:11:16.336235 26733 net.cpp:399] fc1 -> fc1
I0831 10:11:18.543839 26733 net.cpp:141] Setting up fc1
I0831 10:11:18.543858 26733 net.cpp:148] Top shape: 300 4096 1 1 (1228800)
I0831 10:11:18.543860 26733 net.cpp:156] Memory required for data: 1302682800
I0831 10:11:18.543866 26733 layer_factory.hpp:77] Creating layer relu5
I0831 10:11:18.543874 26733 net.cpp:91] Creating Layer relu5
I0831 10:11:18.543876 26733 net.cpp:425] relu5 <- fc1
I0831 10:11:18.543880 26733 net.cpp:386] relu5 -> fc1 (in-place)
I0831 10:11:18.543886 26733 net.cpp:141] Setting up relu5
I0831 10:11:18.543889 26733 net.cpp:148] Top shape: 300 4096 1 1 (1228800)
I0831 10:11:18.543891 26733 net.cpp:156] Memory required for data: 1307598000
I0831 10:11:18.543894 26733 layer_factory.hpp:77] Creating layer fc2
I0831 10:11:18.543902 26733 net.cpp:91] Creating Layer fc2
I0831 10:11:18.543905 26733 net.cpp:425] fc2 <- fc1
I0831 10:11:18.543910 26733 net.cpp:399] fc2 -> fc2
I0831 10:11:18.884058 26733 net.cpp:141] Setting up fc2
I0831 10:11:18.884078 26733 net.cpp:148] Top shape: 300 4096 1 1 (1228800)
I0831 10:11:18.884081 26733 net.cpp:156] Memory required for data: 1312513200
I0831 10:11:18.884088 26733 layer_factory.hpp:77] Creating layer relu6
I0831 10:11:18.884093 26733 net.cpp:91] Creating Layer relu6
I0831 10:11:18.884096 26733 net.cpp:425] relu6 <- fc2
I0831 10:11:18.884100 26733 net.cpp:386] relu6 -> fc2 (in-place)
I0831 10:11:18.884106 26733 net.cpp:141] Setting up relu6
I0831 10:11:18.884109 26733 net.cpp:148] Top shape: 300 4096 1 1 (1228800)
I0831 10:11:18.884111 26733 net.cpp:156] Memory required for data: 1317428400
I0831 10:11:18.884114 26733 layer_factory.hpp:77] Creating layer fc_class
I0831 10:11:18.884120 26733 net.cpp:91] Creating Layer fc_class
I0831 10:11:18.884124 26733 net.cpp:425] fc_class <- fc2
I0831 10:11:18.884130 26733 net.cpp:399] fc_class -> fc_class
I0831 10:11:19.714109 26733 net.cpp:141] Setting up fc_class
I0831 10:11:19.714126 26733 net.cpp:148] Top shape: 300 10000 1 1 (3000000)
I0831 10:11:19.714129 26733 net.cpp:156] Memory required for data: 1329428400
I0831 10:11:19.714134 26733 layer_factory.hpp:77] Creating layer fc_class_fc_class_0_split
I0831 10:11:19.714141 26733 net.cpp:91] Creating Layer fc_class_fc_class_0_split
I0831 10:11:19.714144 26733 net.cpp:425] fc_class_fc_class_0_split <- fc_class
I0831 10:11:19.714148 26733 net.cpp:399] fc_class_fc_class_0_split -> fc_class_fc_class_0_split_0
I0831 10:11:19.714154 26733 net.cpp:399] fc_class_fc_class_0_split -> fc_class_fc_class_0_split_1
I0831 10:11:19.714177 26733 net.cpp:141] Setting up fc_class_fc_class_0_split
I0831 10:11:19.714182 26733 net.cpp:148] Top shape: 300 10000 1 1 (3000000)
I0831 10:11:19.714184 26733 net.cpp:148] Top shape: 300 10000 1 1 (3000000)
I0831 10:11:19.714186 26733 net.cpp:156] Memory required for data: 1353428400
I0831 10:11:19.714188 26733 layer_factory.hpp:77] Creating layer prob
I0831 10:11:19.714192 26733 net.cpp:91] Creating Layer prob
I0831 10:11:19.714195 26733 net.cpp:425] prob <- fc_class_fc_class_0_split_0
I0831 10:11:19.714197 26733 net.cpp:399] prob -> prob
I0831 10:11:19.714236 26733 net.cpp:141] Setting up prob
I0831 10:11:19.714239 26733 net.cpp:148] Top shape: 300 10000 1 1 (3000000)
I0831 10:11:19.714241 26733 net.cpp:156] Memory required for data: 1365428400
I0831 10:11:19.714243 26733 layer_factory.hpp:77] Creating layer loss
I0831 10:11:19.714247 26733 net.cpp:91] Creating Layer loss
I0831 10:11:19.714249 26733 net.cpp:425] loss <- fc_class_fc_class_0_split_1
I0831 10:11:19.714252 26733 net.cpp:425] loss <- label
I0831 10:11:19.714256 26733 net.cpp:399] loss -> loss
…
