I0819 23:15:48.744544 16952 caffe.cpp:185] Using GPUs 0
I0819 23:15:48.752429 16952 caffe.cpp:190] GPU 0: GeForce GTX TITAN X
I0819 23:15:48.874274 16952 solver.cpp:48] Initializing solver from parameters: 
test_iter: 750
test_interval: 4000
base_lr: 0.01
display: 500
max_iter: 8000
lr_policy: "step"
gamma: 0.1
momentum: 0.9
weight_decay: 0.0005
stepsize: 2000
snapshot: 4000
snapshot_prefix: "examples/jr-station/vgg"
solver_mode: GPU
device_id: 0
net: "examples/jr-station/part_Dict.prototxt"
I0819 23:15:48.874356 16952 solver.cpp:91] Creating training net from net file: examples/jr-station/part_Dict.prototxt
I0819 23:15:48.874841 16952 net.cpp:313] The NetState phase (0) differed from the phase (1) specified by a rule in layer data
I0819 23:15:48.874979 16952 net.cpp:49] Initializing net from parameters: 
name: "Bigram_Net_VGG"
state {
  phase: TRAIN
}
layer {
  name: "data"
  type: "Data"
  top: "data"
  top: "label"
  include {
    phase: TRAIN
  }
  transform_param {
  }
  data_param {
    source: "examples/jr-station/img_part_train_lmdb"
    batch_size: 500
    backend: LMDB
  }
  input_param {
    shape {
      dim: 1
      dim: 1
      dim: 32
      dim: 100
    }
  }
}
layer {
  name: "conv1"
  type: "Convolution"
  bottom: "data"
  top: "conv1"
  param {
    lr_mult: 1
    decay_mult: 1
  }
  param {
    lr_mult: 2
    decay_mult: 0
  }
  convolution_param {
    num_output: 64
    pad: 2
    kernel_size: 5
    stride: 1
    weight_filler {
      type: "gaussian"
      std: 0.01
    }
    bias_filler {
      type: "constant"
      value: 0
    }
  }
}
layer {
  name: "relu1"
  type: "ReLU"
  bottom: "conv1"
  top: "conv1"
}
layer {
  name: "pool1"
  type: "Pooling"
  bottom: "conv1"
  top: "pool1"
  pooling_param {
    pool: MAX
    kernel_size: 2
    stride: 2
    pad: 0
  }
}
layer {
  name: "conv2"
  type: "Convolution"
  bottom: "pool1"
  top: "conv2"
  param {
    lr_mult: 1
    decay_mult: 1
  }
  param {
    lr_mult: 2
    decay_mult: 0
  }
  convolution_param {
    num_output: 128
    pad: 2
    kernel_size: 5
    stride: 1
    weight_filler {
      type: "gaussian"
      std: 0.01
    }
    bias_filler {
      type: "constant"
      value: 0
    }
  }
}
layer {
  name: "relu2"
  type: "ReLU"
  bottom: "conv2"
  top: "conv2"
}
layer {
  name: "pool2"
  type: "Pooling"
  bottom: "conv2"
  top: "pool2"
  pooling_param {
    pool: MAX
    kernel_size: 2
    stride: 2
    pad: 0
  }
}
layer {
  name: "conv3"
  type: "Convolution"
  bottom: "pool2"
  top: "conv3"
  param {
    lr_mult: 1
    decay_mult: 1
  }
  param {
    lr_mult: 2
    decay_mult: 0
  }
  convolution_param {
    num_output: 256
    pad: 1
    kernel_size: 3
    stride: 1
    weight_filler {
      type: "gaussian"
      std: 0.01
    }
    bias_filler {
      type: "constant"
      value: 0
    }
  }
}
layer {
  name: "relu3"
  type: "ReLU"
  bottom: "conv3"
  top: "conv3"
}
layer {
  name: "conv3_5"
  type: "Convolution"
  bottom: "conv3"
  top: "conv3_5"
  param {
    lr_mult: 1
    decay_mult: 1
  }
  param {
    lr_mult: 2
    decay_mult: 0
  }
  convolution_param {
    num_output: 512
    pad: 1
    kernel_size: 3
    stride: 1
    weight_filler {
      type: "gaussian"
      std: 0.01
    }
    bias_filler {
      type: "constant"
      value: 0
    }
  }
}
layer {
  name: "relu3_5"
  type: "ReLU"
  bottom: "conv3_5"
  top: "conv3_5"
}
layer {
  name: "pool3"
  type: "Pooling"
  bottom: "conv3_5"
  top: "pool3"
  pooling_param {
    pool: MAX
    kernel_size: 2
    stride: 2
    pad: 0
  }
}
layer {
  name: "conv4"
  type: "Convolution"
  bottom: "pool3"
  top: "conv4"
  param {
    lr_mult: 1
    decay_mult: 1
  }
  param {
    lr_mult: 2
    decay_mult: 0
  }
  convolution_param {
    num_output: 512
    pad: 1
    kernel_size: 3
    stride: 1
    weight_filler {
      type: "gaussian"
      std: 0.01
    }
    bias_filler {
      type: "constant"
      value: 0
    }
  }
}
layer {
  name: "relu4"
  type: "ReLU"
  bottom: "conv4"
  top: "conv4"
}
layer {
  name: "fc1"
  type: "Convolution"
  bottom: "conv4"
  top: "fc1"
  param {
    lr_mult: 1
    decay_mult: 1
  }
  param {
    lr_mult: 2
    decay_mult: 0
  }
  convolution_param {
    num_output: 4096
    pad: 0
    stride: 1
    weight_filler {
      type: "gaussian"
      std: 0.01
    }
    bias_filler {
      type: "constant"
      value: 0
    }
    kernel_h: 4
    kernel_w: 13
  }
}
layer {
  name: "relu5"
  type: "ReLU"
  bottom: "fc1"
  top: "fc1"
}
layer {
  name: "fc2"
  type: "Convolution"
  bottom: "fc1"
  top: "fc2"
  param {
    lr_mult: 1
    decay_mult: 1
  }
  param {
    lr_mult: 2
    decay_mult: 0
  }
  convolution_param {
    num_output: 4096
    pad: 0
    kernel_size: 1
    stride: 1
    weight_filler {
      type: "gaussian"
      std: 0.01
    }
    bias_filler {
      type: "constant"
      value: 0
    }
  }
}
layer {
  name: "relu6"
  type: "ReLU"
  bottom: "fc2"
  top: "fc2"
}
layer {
  name: "fc_class"
  type: "Convolution"
  bottom: "fc2"
  top: "fc_class"
  param {
    lr_mult: 1
    decay_mult: 1
  }
  param {
    lr_mult: 2
    decay_mult: 0
  }
  convolution_param {
    num_output: 88172
    pad: 0
    kernel_size: 1
    stride: 1
    weight_filler {
      type: "gaussian"
      std: 0.01
    }
    bias_filler {
      type: "constant"
      value: 0
    }
  }
}
layer {
  name: "prob"
  type: "Softmax"
  bottom: "fc_class"
  top: "prob"
}
layer {
  name: "loss"
  type: "SoftmaxWithLoss"
  bottom: "fc_class"
  bottom: "label"
  top: "loss"
}
I0819 23:15:48.875059 16952 layer_factory.hpp:77] Creating layer data
I0819 23:15:48.875566 16952 net.cpp:91] Creating Layer data
I0819 23:15:48.875576 16952 net.cpp:399] data -> data
I0819 23:15:48.875592 16952 net.cpp:399] data -> label
I0819 23:15:48.876117 16958 db_lmdb.cpp:35] Opened lmdb examples/jr-station/img_part_train_lmdb
terminate called after throwing an instance of 'std::length_error'
  what():  basic_string::_S_create
*** Aborted at 1471619753 (unix time) try "date -d @1471619753" if you are using GNU date ***
PC: @     0x7f6123795c37 (unknown)
*** SIGABRT (@0x3e800004238) received by PID 16952 (TID 0x7f60f621e700) from PID 16952; stack trace: ***
    @     0x7f6123795cb0 (unknown)
    @     0x7f6123795c37 (unknown)
    @     0x7f6123799028 (unknown)
    @     0x7f6123d9a535 (unknown)
    @     0x7f6123d986d6 (unknown)
    @     0x7f6123d98703 (unknown)
    @     0x7f6123d98922 (unknown)
    @     0x7f6123dea3a7 (unknown)
    @     0x7f6123df4262 (unknown)
    @     0x7f6123df5971 (unknown)
    @     0x7f6123df5a2d (unknown)
    @     0x7f6124c017da caffe::db::LMDBCursor::value()
    @     0x7f6124a82a4b caffe::DataReader::Body::read_one()
    @     0x7f6124a82e14 caffe::DataReader::Body::InternalThreadEntry()
    @     0x7f6124a80150 caffe::InternalThread::entry()
    @     0x7f611c952a4a (unknown)
    @     0x7f61185ff184 start_thread
    @     0x7f612385937d (unknown)
    @                0x0 (unknown)
